model/keypoint_classifier/keypoint_classifier.tflite (tflite, 6776 bytes, 6 tensors)

arith.constant f4 [9, 10]
1.2125624 0.01510333 -0.13302676 -0.8847244 -0.098007984 -0.33081934 0.89883894 -0.8400641
-0.8035818 0.49276096 0.29033226 0.7218728 -1.4068837 0.99850297 -0.83517385 -1.9789703
-0.90853757 1.1939642 0.46590218 -0.7486414 -0.038928732 -0.34294194 -0.17821987 1.1073517
0.59989196 1.1270837 -1.1039971 0.15707386 0.19678205 -2.3003302 -0.8332467 -0.08742695
0.18727462 0.91254294 -1.6047808 0.36239538 0.7007221 -1.1834613 -0.8357988 -0.3398046
-0.4984006 0.10473302 0.5318727 0.01282805 -1.0021517 0.13715567 -0.5800936 -0.9394306
-0.5803394 0.59843 -0.47079685 0.6385667 0.21201566 -0.25643936 0.8988919 0.28931957
-0.3436282 -0.9709455 -0.75079584 0.54599136 0.7786043 0.08330139 -1.5721085 -0.22572538
-0.016617067 -1.6340781 -0.8812984 -0.8409876 1.5915134 0.38500088 -1.2520108 -0.8377026
0.75730413 -1.784446 0.46924588 0.1804103 0.19000028 1.0840447 -0.5532187 -0.90532565
-0.30437997 -1.6173762 -0.4095806 -0.53753436 0.026187157 0.30887794 0.49023825 -0.6117395
0.22507252 0.74158365
00000000: 3f35 9b3f f573 773c 2b38 08be 4c7d 62bf
00000010: 69b8 c8bd 2761 a9be 4f1a 663f 710e 57bf
00000020: 89b7 4dbf 2a4b fc3e 6ea6 943e a8cc 383f
00000030: c414 b4bf e49d 7f3f f4cd 55bf e64e fdbf
00000040: eb95 68bf d2d3 983f bb8a ee3e f6a6 3fbf
00000050: bc73 1fbd 1696 afbe 457f 36be b3bd 8d3f
00000060: 8592 193f 4744 903f c74f 8dbf f8d7 203e
00000070: 3c81 493e 9c38 13c0 a84f 55bf e70c b3bd
00000080: ebc4 3f3e 6a9c 693f 7569 cdbf e38b b93e
00000090: 8662 333f a97b 97bf e9f6 55bf defa adbe
000000a0: 5d2e ffbe 447e d63d cf28 083f be2c 523c
000000b0: 8246 80bf 8972 0c3e 0481 14bf 867e 70bf
000000c0: 1f91 14bf b532 193f 490c f1be 1b79 233f
000000d0: a21a 593e 054c 83be c81d 663f b221 943e
000000e0: 09f0 afbe e28f 78bf 2834 40bf 17c6 0b3f
000000f0: 9d52 473f eb99 aa3d da3a c9bf 8e24 67be
00000100: 8420 88bc 7929 d1bf c69c 61bf f74a 57bf
00000110: b6b6 cb3f d61e c53e e441 a0bf ad73 56bf
00000120: afde 413f ba68 e4bf ff40 f03e 7abd 383e
00000130: 6f8f 423e fac1 8a3f be9f 0dbf 6cc3 67bf
00000140: b1d7 9bbe 2f06 cfbf 8cb4 d1be da9b 09bf
00000150: 7386 d63c 4025 9e3e 8200 fb3e f69a 1cbf
00000160: 6979 663e 6dd8 3d3f

arith.constant1 f4 [10, 20]
1.1125923 -0.24144082 0.28504595 0.27414036 0.14233798 -1.254284 0.40992963 1.3943188
-0.8612991 -0.3898508 -0.07338072 0.3288831 -0.74661934 -0.060211107 -0.005901638 -0.022786297
0.23600283 1.5159141 1.3505918 -0.031446192 -0.24840273 -0.06537961 0.14484158 0.10282148
1.2249706 -0.3404162 0.16509742 0.41143128 -0.4168046 -0.3876303 -0.5620645 0.11698664
1.7306904 -0.66234004 -0.37065244 -0.25920954 -0.12061288 0.45904157 0.19488348 0.22533742
0.7546803 0.8920373 0.1143653 0.3793671 0.81788176 0.6791414 0.08259443 -0.4741424
0.7640705 0.8003101 0.7489475 -0.06149827 1.0441872 0.54302794 0.59444094 0.84285855
0.86060184 0.090644576 -0.002388026 0.1995415 -0.06295101 0.30632177 -0.23097336 0.23175418
0.94674516 0.010717795 -0.60824084 -0.6182003 -0.059853707 -0.5055391 -0.4800357 -0.0855441
1.1046222 -0.5365722 -0.2665121 -0.3708345 -0.1901143 -0.3718483 -0.6986724 -1.3788589
0.11829077 0.011442102 -0.28382564 -0.099319994 0.0022040633 -0.026832208 -0.492757 0.5133109
0.44619757 -0.17179012 -0.24255064 1.1871375 -0.11712367 0.4669119 0.6013945 -0.3333301
-0.26915917 0.0745462 -0.3970329 -0.3569959 1.2634457 0.61837345 -0.019662572 0.30970025
0.107771374 0.3808386 0.114716135 0.015571516 1.8727443 -0.051709 0.6352635 -0.06952809
-0.023796722 0.33348736 0.42116597 0.41402486 0.61250097 -0.6740833 -0.7054034 -0.055804998
0.31915355 0.82970494 -0.020922976 0.27031398 -0.12212749 0.81155133 -0.106184036 0.8881351
0.08808257 0.62038445 0.4351756 0.037192598 -0.235129 0.58673495 -0.45345598 0.63667065
1.3613201 0.33054984 0.29727095 -0.22625436 -0.4241808 -1.9696418 -0.38124567 -1.1234282
0.4746892 -1.4312704 -0.59736526 0.09066705 -0.5116591 0.7028721 0.7117974 0.32119927
0.43311694 0.9006799 0.89088815 0.6087541 -2.2851992 0.011532859 -0.19024645 -0.11466488
-0.20119226 -0.30062336 0.19624352 0.17479992 -1.8631238 -0.9505917 0.18521068 -0.06909751
-0.24030532 0.14832869 -0.07816766 0.061487433 -0.7046825 0.15877132 -0.10914967 -0.07883824
-0.74830264 -0.20107988 0.12659858 0.5963949 -0.047558542 1.2854773 1.5516348 0.7153157
0.012065987 1.1839933 1.6394491 -0.019963594 0.12192445 -0.63843316 -0.3213524 1.6938909
-0.27070978 0.04615741 -0.37095967 -0.39824358 1.5905585 0.299923 1.0777282 1.8704071
00000000: 6d69 8e3f 433c 77be 8bf1 913e 205c 8c3e
00000010: 0cc1 113e 618c a0bf 4ce2 d13e 0a79 b23f
00000020: 197e 5cbf 869a c7be a248 96bd 5e63 a83e
00000030: 7222 3fbf ec9f 76bd 8762 c1bb 54aa babc
00000040: baaa 713e 7909 c23f 31e0 ac3f b9cd 00bd
00000050: 495d 7ebe bfe5 85bd 5a51 143e 1194 d23d
00000060: d6cb 9c3f 084b aebe 4c0f 293e 1fa7 d23e
00000070: 6a67 d5be 7b77 c6be 76e3 0fbf b196 ef3d
00000080: 4387 dd3f 1e8f 29bf 28c6 bdbe 1db7 84be
00000090: e303 f7bd 7f07 eb3e 898f 473e dabe 663e
000000a0: ba32 413f 8e5c 643f 5b38 ea3d 683c c23e
000000b0: b360 513f 36dc 2d3f 4527 a93d cbc2 f2be
000000c0: 209a 433f 1fe1 4c3f 06bb 3f3f 9ce5 7bbd
000000d0: eda7 853f e103 0b3f 482d 183f 94c5 573f
000000e0: 6750 5c3f dda3 b93d 6e80 1cbb 9b54 4c3e
000000f0: 76ec 80bd 35d6 9c3e 4884 6cbe f850 6d3e
00000100: e45d 723f b199 2f3c acb5 1bbf 6042 1ebf
00000110: 2929 75bd 036b 01bf 3dc7 f5be bf31 afbd
00000120: 4364 8d3f cc5c 09bf 4674 88be 05de bdbe
00000130: 53ad 42be e662 bebe 32dc 32bf 737e b0bf
00000140: 6e42 f23d a777 3b3c 9851 91be 4868 cbbd
00000150: 0c72 103b 38cf dbbc a54a fcbe 5868 033f
00000160: 0274 e43e c0e9 2fbe 325f 78be 1ff4 973f
00000170: 89de efbd 140f ef3e fdf4 193f 3eaa aabe
00000180: 3bcf 89be aeab 983d e547 cbbe 2bc8 b6be
00000190: 97b8 a13f b94d 1e3f 6713 a1bc 0891 9e3e
000001a0: 3db7 dc3d 47fd c23e 4bf0 ea3d ac1f 7f3c
000001b0: 16b6 ef3f d1cc 53bd a1a0 223f be64 8ebd
000001c0: 58f1 c2bc dbbe aa3e 11a3 d73e 11fb d33e
000001d0: ddcc 1c3f b990 2cbf 5195 34bf c893 64bd
000001e0: 1868 a33e 8b67 543f a966 abbc 9866 8a3e
000001f0: fa1d fabd d4c1 4f3f 0477 d9bd d25c 633f
00000200: a264 b43d 84d1 1e3f 56cf de3e 4457 183d
00000210: a8c5 70be 4334 163f 622b e8be d9fc 223f
00000220: bd3f ae3f d43d a93e e633 983e 39af 67be
00000230: 3a2e d9be 391d fcbf a232 c3be 7fcc 8fbf
00000240: 760a f33e de33 b7bf eeec 18bf a5af b93d
00000250: 17fc 02bf 6def 333f 5b38 363f 3b74 a43e
00000260: 81c1 dd3e f592 663f 3f11 643f 4fd7 1b3f
00000270: b440 12c0 51f4 3c3c f7cf 42be 6cd5 eabd
00000280: 5805 4ebe 4eeb 99be 10f4 483e c0fe 323e
00000290: d77a eebf fa59 73bf dea7 3d3e ff82 8dbd
000002a0: 9912 76be 7ae3 173e 5e16 a0bd 3fda 7b3d
000002b0: 1366 34bf f394 223e dd89 dfbd f175 a1bd
000002c0: c390 3fbf e2e7 4dbe 0fa3 013e 56ad 183f
000002d0: bfcc 42bd 858a a43f f89b c63f ee1e 373f
000002e0: 6bb0 453c 188d 973f 78d9 d13f b18a a3bc
000002f0: 87b3 f93d 5b70 23bf 4d88 a4be 6bd1 d83f
00000300: 799a 8abe 8d0f 3d3d 6dee bdbe 95e6 cbbe
00000310: 6c97 cb3f 828f 993e fff2 893f 8069 ef3f

arith.constant2 f4 [9]
-0.34770045 0.33486846 0.41746697 0.11800753 -0.33006874 -0.26878774 0.027139127 -0.6721733
0.5216746
00000000: cb05 b2be e173 ab3e 3bbe d53e efad f13d
00000010: c5fe a8be 8c9e 89be e052 de3c 8d13 2cbf
00000020: 778c 053f

sequential_1/dense_1_2/BiasAdd/ReadVariableOp f4 [10]
0.3052935 0.3948799 0.07185621 1.0275152 -0.37839878 0.31374314 0.17292292 0.78276986
0.9508211 0.27457744
00000000: 6e4f 9c3e b32d ca3e 5929 933d 9e85 833f
00000010: 7cbd c1be f1a2 a03e b512 313e 9b63 483f
00000020: 0369 733f 6a95 8c3e

sequential_1/dense_1/BiasAdd/ReadVariableOp f4 [20]
-0.5378062 -0.6110113 -0.90190154 -0.9574696 -0.38992947 -0.07456133 -0.96094847 -1.2171859
-0.026102314 0.026989192 0.073614545 -0.88073266 -0.27676374 0.17411742 0.24275556 0.005868216
-0.8825499 -1.0692229 -0.9599954 0.04282193
00000000: abad 09bf 3d6b 1cbf 05e3 66bf ba1c 75bf
00000010: d6a4 c7be 9cb3 98bd b800 76bf bfcc 9bbf
00000020: 85d4 d5bc 7018 dd3c 39c3 963d b277 61bf
00000030: fab3 8dbe d64b 323e ea94 783e 2a4a c03b
00000040: caee 61bf 4cdc 88bf 42c2 75bf 0c66 2f3d

sequential_1/dense_1/MatMul f4 [20, 42]
0.21587372 -0.10311018 0.21952699 0.060721546 0.03948115 0.103305966 0.06313532 0.105729125
0.16796902 0.04872086 -0.074403435 0.03686492 -0.10337092 0.008449488 -0.0015971023 0.015740847
0.090394035 -0.016687153 -0.050302368 0.015737955 -0.23598655 -0.101253286 -0.025875963 -1.1525244
0.22064863 -0.07305408 0.054301847 0.024932256 -0.27055004 -0.0032902262 -0.07374779 0.17746232
0.1208542 0.15028897 0.10380357 0.015342366 -0.0988616 0.047510568 0.07633021 0.14037184
0.19333589 0.16272238 0.083624035 -0.28000918 -0.049593408 0.05971349 -0.042508166 0.05820353
-0.06947323 0.07744461 -0.028124694 0.05719547 -0.0036387022 -0.0010213103 0.00018061542 0.023492219
0.012378513 0.025061825 0.073219985 0.00091868045 -0.017457798 0.02525562 0.015146027 0.037777603
0.05641378 0.03664096 0.014861079 0.008005222 -0.038981717 0.09805713 0.047716755 0.05724492
-0.0106314635 0.0994214 0.033631414 -1.6459402 -0.046901733 0.10815148 0.023498802 0.06782462
0.04431003 0.107070565 -0.03675535 0.107890636 0.17266154 -0.045722693 -0.004672944 0.010102853
0.04033858 -0.018958118 0.104711995 -0.056780864 0.15938084 -0.07147728 0.029163873 0.0036827608
0.025393018 0.030446311 -0.040681645 0.09325456 0.0005446163 0.0053291786 -0.062555924 -0.010339811
0.019292831 -0.023279203 -0.021853417 0.008636675 -0.011335166 -0.0073979837 0.042615265 -0.062573366
-0.023023047 -0.10642316 -0.12084915 -0.17240013 -0.2388537 0.23447888 0.049541928 -0.004922517
-0.041169833 -0.07551111 -0.06470241 -0.95359653 0.19884443 -0.97342193 -0.1474779 -0.13643219
0.2795333 -0.03228244 -0.03597416 0.08344404 -0.17351748 0.13023023 -0.1377965 0.093506664
0.14899795 0.038336415 0.014384067 0.058682073 0.039596118 0.04273879 0.009454132 0.015375611
-0.071507014 0.022403037 -0.11045834 -0.02276994 0.04903496 -0.16298614 -0.0107027525 -0.21092033
-0.0153213795 0.041642006 -0.02057538 -0.20036878 0.3071569 -0.7665354 0.41006106 -0.63271195
-0.058241434 -0.008491112 -0.114863805 -0.019226335 -0.014500827 -0.10356815 0.42630532 -0.12044523
-0.07726517 0.122860074 -0.010364597 0.66764194 -0.023164934 0.23745024 -0.017103652 0.14741628
-0.003711369 0.09327446 0.0056531997 0.08785342 -0.0014896168 0.06986668 0.01167634 0.034170374
0.031487342 -1.4751128 0.015432031 0.06285302 0.0037425393 0.046359763 0.007000429 0.059080973
0.010232244 0.043811303 0.037724964 0.03598876 0.016630733 0.039736103 -0.011788135 0.051630363
-0.015992396 0.04815063 0.116779394 0.031877734 0.025612306 0.034214787 0.011132704 0.025938889
-0.043222956 0.033228856 -0.21173777 0.13470882 0.028154377 0.11681172 0.060056318 0.09487251
0.050586373 0.11823371 0.06299944 0.098733306 -0.014672976 0.12339286 0.030656643 0.08979272
0.017415911 0.09744753 0.022219008 0.0044087223 -0.08960392 0.13924572 -0.040170636 0.11713978
-0.06113252 0.07434928 -0.08301085 0.039493248 -0.07438328 0.16800924 -0.006265638 0.1342665
-0.052928984 0.19076805 -0.038041674 -1.5099281 0.003848012 0.17950816 0.011992863 0.13082923
-0.030171383 0.13139151 -0.07254743 0.11871624 0.095840186 -0.01998213 0.045066237 -0.107443534
00000000: 000e 5d3e 6e2b d3bd afcb 603e 28b7 783d
00000010: fdb6 213d 1492 d33d 174d 813d 8388 d83d
00000020: 1200 2c3e 868f 473d d460 98bd acff 163d
00000030: 22b4 d3bd b96f 0a3c dc55 d1ba f3f2 803c
00000040: 8220 b93d 7fb3 88bc db09 4ebd e2ec 803c
00000050: 75a6 71be e25d cfbd d4f9 d3bc eb85 93bf
00000060: b7f1 613e 619d 95bd 9d6b 5e3d bb3e cc3c
00000070: 8985 8abe d6a0 57bb 1509 97bd afb8 353e
00000080: 6882 f73d 5ae5 193e f796 d43d 8c5e 7b3c
00000090: f377 cabd 719a 423d 0353 9c3d a3bd 0f3e
000000a0: d8f9 453e b2a0 263e 1443 ab3d 5d5d 8fbe
000000b0: 7522 4bbd 2296 743d 0b1d 2ebd d366 6e3d
000000c0: fb47 8ebd 489b 9e3d c265 e6bc cc45 6a3d
000000d0: 4b77 6ebb 7ddd 85ba 9563 3d39 c172 c03c
000000e0: 3fcf 4a3c 754e cd3c 5cf4 953d 9ad3 703a
000000f0: a803 8fbc e0e4 ce3c 0b27 783c b0bc 1a3d
00000100: 2312 673d d514 163d e27b 733c 5628 033c
00000110: 4bab 1fbd 2dd2 c83d a572 433d a679 6a3d
00000120: 972f 2ebc 729d cb3d 18c1 093d 2bae d2bf
00000130: 081c 40bd 867e dd3d 8f80 c03c a2e7 8a3d
00000140: 6f7e 353d d047 db3d c78c 16bd c4f5 dc3d
00000150: 30ce 303e b847 3bbd 7f1f 99bb 7086 253c
00000160: 113a 253d 0e4e 9bbc 3e73 d63d 0d93 68bd
00000170: bb34 233e ae62 92bd 13e9 ee3c 795a 713b
00000180: 0505 d03c 8b6a f93c cca1 26bd 3ffc be3d
00000190: 95c4 0e3a 64a0 ae3b 521d 80bd 5068 29bc
000001a0: 000c 9e3c 07b4 bebc f005 b3bc d780 0d3c
000001b0: 22b7 39bc c96a f2bb 588d 2e3d 7726 80bd
000001c0: d49a bcbc 63f4 d9bd c27f f7bd a989 30be
000001d0: 1096 74be 3b1b 703e 7aec 4a3d 114d a1bb
000001e0: b3a1 28bd 92a5 9abd b282 84bd e71e 74bf
000001f0: e09d 4b3e 2e32 79bf 7204 17be e1b4 0bbe
00000200: fd1e 8f3e 983a 04bd a459 13bd b5e4 aa3d
00000210: 91ae 31be 135b 053e 871a 0dbe 6c80 bf3d
00000220: eb92 183e a506 1d3d 26ab 6b3c 9d5c 703d
00000230: 8a2f 223d df0e 2f3d 81e5 1a3c fde9 7b3c
00000240: 4572 92bd 9386 b73c fb37 e2bd 0688 babc
00000250: e2d8 483d d7e5 26be 995a 2fbc 80fb 57be
00000260: 8606 7bbc cf90 2a3d b38d a8bc 792d 4dbe
00000270: ab43 9d3e aa3b 44bf 86f3 d13e 69f9 21bf
00000280: 928e 6ebd 4e1e 0bbc b73d ebbd 8c80 9dbc
00000290: e094 6dbc 8a1b d4bd b144 da3e fdab f6bd
000002a0: 343d 9ebd 109e fb3d 45d0 29bc 95ea 2a3f
000002b0: 63c4 bdbc 2826 733e f51c 8cbc 4bf4 163e
000002c0: 703a 73bb ae06 bf3d 7a3e b93b 7eec b33d
000002d0: 3f3f c3ba 4316 8f3d 1f4e 3f3c 3cf6 0b3d
000002e0: dff8 003d 7fd0 bcbf a1d6 7c3c 16b9 803d
000002f0: 6445 753b bce3 3d3d db63 e53b e4fe 713d
00000300: 24a5 273c 7b73 333d 7e85 1a3d f368 133d
00000310: 2d3d 883c 53c2 223d 0623 41bc 5c7a 533d
00000320: 7c02 83bc 9839 453d 092a ef3d 3a92 023d
00000330: e6d0 d13c ce24 0c3d f265 363c cb7d d43c
00000340: 8e0a 31bd fb1a 083d c9d1 58be 1cf1 093e
00000350: 02a4 e63c fc3a ef3d 9dfd 753d 854c c23d
00000360: a833 4f3d 8424 f23d da05 813d b034 ca3d
00000370: ec66 70bc 65b5 fc3d a423 fb3c 3fe5 b73d
00000380: d0ab 8e3c 9292 c73d a304 b63c 0b77 903b
00000390: 4382 b7bd 6e96 0e3e f789 24bd fbe6 ef3d
000003a0: 1866 7abd 6f44 983d 9801 aabd acc3 213d
000003b0: 4356 98bd 9d0a 2c3e fb4f cdbb 287d 093e
000003c0: 10cc 58bd b358 433e 96d1 1bbd 5345 c1bf
000003d0: ee2e 7c3b fdd0 373e b77d 443c 19f8 053e
000003e0: fa29 f7bc 7f8b 063e bf93 94bd 8021 f33d
000003f0: dc47 c43d 90b1 a3bc 6097 383d 5b0b dcbd
