modCHAR/model/keypoint_classifier/keypoint_classifierCHAR.tflite (tflite, 9096 bytes, 6 tensors)

arith.constant f4 [60, 10]
00000000: 8d9d 67bd ad10 033e b733 103f 8db0 f93d
00000010: 95ff 433e ea47 843d 0026 35bf 3b51 c03e
00000020: 0f7a 07bf 1c59 1b3b 8fd5 a5be 156d c6be
00000030: 3385 87be d2f3 13bf c382 a53e cc8e b33d
00000040: cd25 a9bf d06e 283f 2b10 633e 2528 3bbf
00000050: 56a3 a0be 0622 acbe 27c8 d03e 4407 74be
00000060: c147 613d 47ac d43d 212d e23e fdb5 ce3e
00000070: f4f8 ec3e a1d8 8bbe 53a4 38be fd9f 4fbe
00000080: 1975 6b3e 633e 5fbf 01e1 2e3e b131 f83e
00000090: d119 04bf 086f 813e ca86 9cbe 715a 8ebe
000000a0: 3b53 ac3e 1d7f 933e 8f6a 953e 9ba9 e23d
000000b0: dd55 e43d cec0 a3be 8efe 35be 79c9 febc
000000c0: e27d 88be 5ef4 213e 963b bdbf 9fd4 353e
000000d0: 73f1 f33e 1494 d5bd 8c59 0cbe 4337 9f3e
000000e0: dc54 8d3e bbae 23be a143 523f 8431 40c0
000000f0: b254 8ebe 81ba 3dbd c65d 983e cc80 8cbe
00000100: c0ee 6abe 079a ef3d c9c7 483e fb9c b63e
00000110: 0172 913e 2b1c f73d 6a73 cebe 8801 d5bd
00000120: 1052 36bf 3eb7 6a3d e036 653f 9362 3d3f
00000130: b242 b6be e832 07be 929d 97bd 6ed0 f3be
00000140: 2cb1 41be 96bc d83e f2a2 efbe 0c64 e4bd
00000150: 7c1a 8f3d 7c9d f1bd 5478 2d3e 708f 6fbb
00000160: a558 cebe 5022 023e 9ae4 97bd 25d7 a53d
00000170: b19a d73d 136f cfbe 3c86 e6bd 6953 da3d
00000180: 3acd 9bbb f325 b13e 837c 213e 5e57 be3e
00000190: 6fda 193f 712f 4ebe 0182 3ebe be5d 57be
000001a0: e054 b4bc 9e87 8cbe 4e54 7b3e 3d66 b8bc
000001b0: ce66 e83e e66c e23e afbf 6a3e a169 ebbd
000001c0: a50d b7be 8aa5 023e e49d b83e 7855 b0be
000001d0: 7cf6 903e abc7 f93c 8fb9 12be c2a3 353e
000001e0: 0dbc 153f 8bbe 4abe a96a efbe 3c6c 3fbe
000001f0: f4bd a1bd fc2f efbe 0e96 eb3e 2570 7a3c
00000200: 2050 603e e3e4 f83e 7328 31bf 9d06 363f
00000210: 435d 82be a937 103d 019f a63e 0932 9e3e
00000220: 7791 30be 6172 82be 096d 08be 94e6 5dbf
00000230: ef6c 0f3e 3901 923e 0270 6abf b75c e23e
00000240: 29ca 5dbd b098 21bf 73e3 a63e 21d0 90be
00000250: 9fe3 07bf 7e85 ce3d dbd6 a73e dbda 59bf
00000260: 1bff 3c3e e1bb b53e f8dc 93be cc14 e23e
00000270: 9e51 193d ac5f e1bf 42b9 e53e e8ef 1bbe
00000280: d0a1 843e a649 6ebf 6edb 7cbe e00d 253f
00000290: 27bc 00bd 75a7 103f d376 bbbe 4903 fabe
000002a0: 45a0 e63e 1b95 433d 8d83 a63e 033f 86bf
000002b0: 29a7 d3be ec63 1b3f c668 89be 9513 443e
000002c0: 7a35 01bf 9404 dfbe 88aa 513e 7d52 103d
000002d0: 9182 f7bb 69e0 663e 0380 e93e 68e6 c93d
000002e0: 9aa2 84be e584 b6bc ec68 813e 6304 e8be
000002f0: 1eaf 16bf ca7a 2fbf 7389 fa3e 7454 79be
00000300: f798 e53e e0fe 573b 4904 6ebf 9dd2 863d
00000310: 1a71 2f3f ca7d 02bf 53fc 45bf e255 04bf
00000320: 9231 bbbe bc9a 92be 7df6 25bf 5760 71bf
00000330: d486 11bf feb9 74bf db0c 57bf c84d cabe
00000340: 1676 5ebf 54f5 60bf 0fb7 e2be 2a6d 153f
00000350: ad6e 883e 3ab4 f3bc d881 933e b63f 33be
00000360: c4e4 023e 1fe4 61be 84d7 963d 68e0 f4be
00000370: b276 f8be aeb8 c23e 137b 7dbe a854 e6be
00000380: fdfd 04bf 79ca 923d daec 83be a29e 183f
00000390: 8077 20be d9bd 9fbe 6baa 27bf 9875 02bf
000003a0: e819 6bbf 8ce0 82bf 1528 97bf 174e 89bf
000003b0: 24f1 4cbf 4f57 9abe cb3c 56bf 6460 0dbf
000003c0: c390 32be 7fe5 9e3d 033a a1bd a06b 003f
000003d0: 6c73 3abe 1977 cfbe e106 043f 58d5 cfbe
000003e0: dbf5 973d 6a6d 25be 1c3d 97be 1274 1d3e
000003f0: b3b0 04bf a17d 7ebe e4bc 1bbe 6b8c 4f3f
-0.056546737 0.1279933 0.5632891 0.121918775 0.19140466 0.06459029 -0.7076111 0.37561974
-0.5292062 0.0023704236 -0.32389495 -0.38755098 -0.2646881 -0.57793915 0.32326326 0.08767471
-1.3214661 0.65794086 0.22174136 -0.7310813 -0.31374615 -0.33619708 0.40777704 -0.23830897
0.05500007 0.10384422 0.44175056 0.4037322 0.46283686 -0.27313712 -0.18031435 -0.20275874
0.22993888 -0.8720457 0.1707802 0.48475412 -0.5160189 0.25280023 -0.30571586 -0.27803376
0.3365725 0.28807917 0.2918286 0.11067506 0.111491896 -0.31983036 -0.17772886 -0.031101929
-0.2665854 0.15815875 -1.4783809 0.1775689 0.4764515 -0.10428634 -0.13706034 0.3109685
0.27603805 -0.15984623 0.82134444 -3.0030222 -0.27798992 -0.046320442 0.29759043 -0.27442014
-0.22942638 0.116993 0.19607462 0.35666642 0.2840729 0.120659195 -0.4032243 -0.10400683
-0.7121897 0.05730366 0.8953686 0.7397854 -0.3559776 -0.13203013 -0.07403101 -0.47619957
-0.18915242 0.4233138 -0.46804005 -0.11151895 0.06987473 -0.11797616 0.16940433 -0.0036554001
-0.40302005 0.12708402 -0.07416649 0.08097676 0.10527552 -0.4051443 -0.11256072 0.106604405
-0.0047546895 0.34599265 0.15770154 0.3717603 0.6009893 -0.20135285 -0.1860428 -0.21031854
-0.022013128 -0.27447218 0.24543878 -0.022509689 0.45390934 0.44223708 0.22924684 -0.114947565
-0.35752597 0.1275846 0.3605796 -0.34440207 0.28313053 0.030490717 -0.14328597 0.1773825
0.5849007 -0.19799249 -0.46761063 -0.18693632 -0.07897559 -0.46716297 0.4601292 0.015285526
0.21905565 0.48612127 -0.69202346 0.7110384 -0.25461778 0.03520933 0.32543185 0.3089755
-0.1724299 -0.2547789 -0.13322844 -0.8667996 0.14006399 0.28516558 -0.9157716 0.4421136
-0.054147873 -0.6312361 0.32595405 -0.2828379 -0.530817 0.10084055 0.3278111 -0.8509957
0.1845669 0.35494903 -0.28879523 0.44156492 0.03743135 -1.7607322 0.44867903 -0.15228236
0.25904703 -0.9308113 -0.24693081 0.64474297 -0.031429436 0.5650552 -0.36614093 -0.4883063
0.4504415 0.04774962 0.3252224 -1.048798 -0.4133847 0.60699344 -0.26837748 0.19148095
-0.50472224 -0.4355818 0.20475209 0.035234917 -0.0075534065 0.22546543 0.45605478 0.098584
-0.25905305 -0.022280166 0.25275362 -0.45315847 -0.5886096 -0.68546736 0.4893299 -0.24348623
0.44843265 0.0032958314 -0.9297529 0.0658314 0.68531954 -0.5097319 -0.7733814 -0.51693547
-0.36561257 -0.28633678 -0.64829236 -0.9428763 -0.56846356 -0.955963 -0.8400399 -0.39512467
-0.86898935 -0.8787434 -0.44280288 0.58369696 0.2664694 -0.029749025 0.2881 -0.17504773
0.1278258 -0.22059678 0.07365325 -0.47827458 -0.48528057 0.38031524 -0.2475398 -0.44986463
-0.51950055 0.07167525 -0.2576664 0.59617054 -0.15670586 -0.3119953 -0.6549441 -0.50960684
-0.91836405 -1.0224776 -1.1809107 -1.0726956 -0.8005545 -0.30144736 -0.8368651 -0.55225205
-0.17438035 0.07758617 -0.07872393 0.5016422 -0.18208092 -0.40520552 0.51572996 -0.40592456
0.0741994 -0.1615502 -0.2953881 0.15376309 -0.5183212 -0.24852611 -0.15208775 0.81073636

arith.constant1 f4 [10, 20]
00000000: 8966 813f 16f6 9ebf 8785 183e d28a 86bf
00000010: 81c8 5c3f a3f7 8fbf 3fd4 ee3e 48dc aa3d
00000020: 8ebc 71bd f2bc 5a3f 88b6 ff3e 54f5 543d
00000030: 9b4a 843f 73de 10be 8e6b 4abe e90c 203f
00000040: 210f 5ebe 2323 6b3e 0729 ed3e dd96 07bf
00000050: f08a d9bd f630 d13e ff09 833f 7c6f d23e
00000060: aa2d d5bd 1172 cbbd ba3d 653f c1fb 043f
00000070: ac05 913f 6c0d e5bf f250 9b3f b0ea 253f
00000080: 38cf 20bf c743 e43d ca0d 743f fd99 35be
00000090: 0d16 173e ac6b dd3e aa7d 193f 0dcb 37be
000000a0: 83ee 803e 1d05 f2bf e38a 683f d008 f1bf
000000b0: e3f8 533e 7a80 dd3e 6e40 313f b07a c43f
000000c0: 2f7b 2c3e 4810 9b3e 812c 6fbd 50de ca3d
000000d0: df49 013f 4b61 623e 95cf 21be e3dc da3d
000000e0: 04ea 8e3d b714 773f 83d2 653e 4a41 d4bf
000000f0: 8b31 803f 7e7c 173f 2e21 ddbe 9cf2 f43e
00000100: 1dd9 653f 6ae3 dbbe 1942 a5be 7091 283d
00000110: caa8 163f 28f5 07bf 5d78 903e dd87 af3e
00000120: d9cf e5bf 1473 9a3f 7dde 1b3f 5f45 bb3f
00000130: be73 533f 1353 213f 13fb 793e 7ab7 2ebf
00000140: 0ca3 873d 18a9 a43d 7ee8 07be ca75 ea3d
00000150: b5b3 d43d 8232 21be e285 d13b 6376 0d3e
00000160: 01f0 dd3e 44f1 d73f 1c3e a5be c940 8b3f
00000170: 6c60 5dbf 8860 7ebe c4aa 1f3f 8209 3cbf
00000180: 729e 52be 6fc7 143f 7f96 7f3e 5e9d b6be
00000190: f6e4 ebbe 5640 47bd 3dfc 6c3f ea32 64bd
000001a0: 3561 efbe 675f 3f3f 9365 9e3d f472 983f
000001b0: c6a9 2e3e 4d64 833f d8ff 973e 38b5 973d
000001c0: c836 ec3e ae79 0fbd 5528 2cbe 5f62 b0be
000001d0: bdb7 dfbd 5c7f 5c3f b09b eb3e a95a 82be
000001e0: d338 c93e 8651 21bf 9ad7 fb3e 151e 12bf
000001f0: 2113 c33e dab9 70be 4524 513f c9d4 be3e
00000200: 7390 583e c41e 64be 6037 3a3f 1c04 6a3e
00000210: 5f44 b2bd 7198 98bf 8c75 5cbf e676 573e
00000220: dd89 dbbf 4866 1c3f fc33 0f3f d8c1 e3bf
00000230: cc74 2abd 4d55 393f 0dce 0f3f 2767 2a3f
00000240: 056d 24bd e0df 813f 8a04 a93e b07e fe3d
00000250: f5aa a23e e2ff bd3f 5b53 a63f cb42 25bf
00000260: 97b7 c93f 0cff 3e3e 7401 e23e d790 7abe
00000270: af36 ae3e 7be8 07bd 9887 8b3e f4bd 843f
00000280: 8e69 093d bee9 043f 55e2 46be c4fd 113f
00000290: 187e 493d 249f e03e c20e 1bc0 a8ec 47be
000002a0: 60eb 8f3e e492 23be 0f5b 26c0 d21e 2fbd
000002b0: ece5 41bf e058 173e cb12 1e3f 011b 503e
000002c0: 950d 883e bebe 8b3e 6640 a4bf 13de 823f
000002d0: 6725 933e 00a8 503d 74e9 ed3d e301 c73d
000002e0: b015 2f3e 13bc b83e 8fb4 1c3f 2219 1b3e
000002f0: 1de0 783f 5baa 5f3f 62d6 763f 241d ab3f
00000300: ce63 db3d 5782 aa3f 34b7 733f a1b1 1dbf
00000310: da7d 7d3f 5df5 733d af7d 9b3e 7f56 f53e
1.0109416 -1.241885 0.14894687 -1.0511115 0.86243445 -1.1247448 0.46646306 0.083427966
-0.05901771 0.8544456 0.49943948 0.051991776 1.0335268 -0.14147358 -0.19767591 0.625197
-0.21685459 0.22962622 0.46320364 -0.52964574 -0.10622203 0.40857667 1.0237426 0.4110068
-0.104091 -0.09933866 0.8954731 0.51946646 1.1329856 -1.7894721 1.2134078 0.6481123
-0.6281619 0.1114574 0.9533354 -0.17734523 0.14754505 0.4324621 0.59957373 -0.17948551
0.2518197 -1.890781 0.90836924 -1.8830814 0.20700411 0.43262082 0.69238937 1.5349941
0.16843866 0.3028586 -0.05839205 0.09905684 0.50503343 0.22107427 -0.15801843 0.10686662
0.06978229 0.96515983 0.22443585 -1.6582425 1.0015119 0.59174335 -0.43189377 0.47841346
0.89784414 -0.4294694 -0.3227699 0.041154325 0.588513 -0.53108454 0.2821683 0.34283343
-1.7954055 1.2066369 0.60886365 1.4630545 0.82598484 0.63017386 0.24412183 -0.68248713
0.066228956 0.080400646 -0.13272282 0.11448248 0.10385839 -0.15741923 0.006394134 0.13814692
0.4334717 1.6870503 -0.32273948 1.0879146 -0.86475253 -0.24841511 0.6236994 -0.7345201
-0.20568255 0.5811681 0.24959753 -0.35666937 -0.4607312 -0.04864534 0.92572385 -0.055712618
-0.4675385 0.7475495 0.077342175 1.1910081 0.17056951 1.0264984 0.2968738 0.074076116
0.46135545 -0.035028152 -0.1681226 -0.3445005 -0.10923717 0.86131835 0.46017218 -0.25459793
0.39301166 -0.6301502 0.49187928 -0.5707715 0.38100532 -0.23508397 0.8169597 0.37271717
0.21148853 -0.22277361 0.72740746 0.2285313 -0.08704447 -1.1921521 -0.8611686 0.2104145
-1.7151448 0.6109357 0.55938697 -1.7793531 -0.041615292 0.72395784 0.56173784 0.6656365
-0.04014303 1.0146446 0.33011276 0.124265075 0.31771055 1.4843714 1.2994188 -0.64555043
1.5759152 0.1865198 0.44141734 -0.24469315 0.34026095 -0.033180695 0.27251887 1.0370469
0.03354793 0.5191916 -0.19422276 0.5702784 0.049192518 0.43871415 -2.4227757 -0.19523871
0.28109264 -0.15974003 -2.5993078 -0.042754002 -0.7574146 0.14779997 0.61747426 0.20322801
0.26572862 0.27293962 -1.2832153 1.0224022 0.28739473 0.050941467 0.11616793 0.09717157
0.17098117 0.3608099 0.6121301 0.15146306 0.9721697 0.87369317 0.9642087 1.3368268
0.107123956 1.3321027 0.9520142 -0.61599165 0.9902016 0.05956017 0.30369326 0.47917554

sequential_3_1/dense_10_1/BiasAdd/ReadVariableOp f4 [10]
00000000: 6f15 38bd 7912 8d3f f4cf 803e 808c 5c3f
00000010: d442 b53f c909 9e3f 9326 3d3f 6d24 55be
00000020: e1b7 1b3f 2bef 2fbf
-0.044942316 1.1021262 0.25158656 0.86151886 1.4161019 1.2346736 0.73886985 -0.20814677
0.6082745 -0.68724316

sequential_3_1/dense_11_1/BiasAdd/ReadVariableOp f4 [60]
00000000: 4395 11bf af6a 943f b030 9abe 0f97 173f
00000010: 17eb bfbf c8cc 5e3f b895 6cbf 9e01 653f
00000020: 1aa1 5c3f f7a8 75bf 53d9 753d 3eb4 023e
00000030: 8508 183e 200f 843f dc9b ea3e 0b63 023f
00000040: f531 60bf 7895 633f 44d5 493d de36 97be
00000050: d934 09bf cc2e 2ebe bd24 26be 3048 c6be
00000060: 42c1 453f 896b 9cbe ebd5 b9be 7b16 e0be
00000070: cbcb babe d726 bcbe 3b23 efbe fb35 b0be
00000080: 3d83 ebbe cab5 babe 11f0 c8be 3fc6 c4be
00000090: 927f c5be f6eb ccbe 1b78 c4be b701 d9be
000000a0: 2629 dabe 8d70 ccbe e1e0 d2be 8568 babe
000000b0: f2c9 d7be 6b5b ebbe 868a bdbe 5de0 d9be
000000c0: edcc d1be 5abe c3be a52a b0be fc1d c6be
000000d0: 861f c7be 1ac9 d7be 0fe9 bdbe b7a6 d3be
000000e0: 8b2e ccbe ce5c c9be f121 acbe 11db d9be
-0.5686838 1.1595057 -0.3011527 0.5921487 -1.4993619 0.8703122 -0.9241595 0.8945559
0.8618332 -0.95960945 0.06002171 0.1276407 0.14847 1.0317116 0.45822036 0.5093238
-0.8757623 0.88899946 0.04927565 -0.29534048 -0.53596264 -0.17010039 -0.16224952 -0.3872695
0.77248013 -0.30550793 -0.3629602 -0.4376715 -0.36483607 -0.36748382 -0.46706566 -0.34416184
-0.45998564 -0.3646682 -0.39245656 -0.384325 -0.3857389 -0.40023774 -0.38372883 -0.4238412
-0.4260952 -0.3992962 -0.41187194 -0.36407867 -0.4214626 -0.45968184 -0.37019747 -0.42553988
-0.40976658 -0.38231164 -0.34407535 -0.3869475 -0.38891238 -0.42145616 -0.37091872 -0.4133813
-0.3987926 -0.39328617 -0.33619645 -0.42549947

sequential_3_1/dense_9_1/BiasAdd/ReadVariableOp f4 [20]
00000000: caef c33e 5bb0 aebe 3b3a 97bf 4fe7 4a3f
00000010: dcf2 233f be1b 8fbf 957c a8bf ea25 86bf
00000020: 842e 8ebf eb00 17bf 56c4 65bf 29e7 79be
00000030: 9d4b 54bf a5aa fe3d 8283 76bf b50b 2a3f
00000040: b88e 97bd 15b5 82be 381f 4dbf c1d6 9bbf
0.38268882 -0.34118924 -1.1814646 0.792592 0.6404245 -1.1180341 -1.316302 -1.048032
-1.1107945 -0.58985776 -0.8975271 -0.24404587 -0.82927877 0.124348916 -0.96294415 0.66424114
-0.07400268 -0.2552878 -0.8012576 -1.2174913

sequential_3_1/dense_9_1/MatMul f4 [20, 42]
00000000: 6a09 193e c033 09bc 7738 3e3e a323 35be
00000010: 67a5 ce3e 0291 5e3c 9c21 1abd 9819 53bd
00000020: 6f28 1ebd be16 503e 6413 d8be c40a b7bb
00000030: 6b9d 49be 0f24 243e 0346 8c3d 1ed2 2a3e
00000040: 5980 8d3e 0ccf a93e e195 1cbf 849f 2b3e
00000050: 074d 2cbe c8a0 883e c161 9fbe f087 c83e
00000060: 3254 cfbe 4550 1d3f b714 04bf 2811 8a3e
00000070: a8e1 79be 3674 e23e 693d d9be 7ca4 fa3e
00000080: 23ef 4bbf 75c3 363f 6a0f fabe 24a5 4f3f
00000090: a6f1 93be 6c64 753f c9bc ddbe 9efc a13f
000000a0: 7dcc 35bf d497 933f 34f6 3bbe e695 95be
000000b0: 8907 0d40 ffbf 373f 8287 c93f b2aa 2c3e
000000c0: 6892 b33f 27a6 013d a6c9 bf3f 3727 133d
000000d0: 5a65 783e b616 9cbe bfc0 d03e a1f5 69be
000000e0: 83a5 2d3f b86f 56be c97d 223f 4a95 0ebf
000000f0: 087e db3c 6f87 02bf d1b2 d03d 9819 f7bc
00000100: 3c37 bf3d 7215 0e3f 7ebc 7f3e 6f66 173f
00000110: 11a9 d0be 60da 1cbf e1ac 2dbe 7e08 c0be
00000120: f4fe 1c3e a28b 843d 5207 043f de4c a33e
00000130: a4cd eebe e6f1 61bf 6bc6 13bf 3d8f 12bf
00000140: b60d a8be 1cfa e6be 79ba 283e 2f1d d3be
00000150: 6c35 693e 74d9 cb3d 798c 48bf b5f2 da3d
00000160: c260 0ebf 27be 81be e204 1cbf 7baa b6be
00000170: 65e2 66bf 1682 b9be bd5d 533d 3803 8fbd
00000180: 6118 533e 004e 0fbd c00a e83d c9f9 56bd
00000190: 6b3d b73d a931 44bd 79f1 8cbd 3160 77be
000001a0: d0af 4e3e 749f 8c3a 33a5 203d 6761 143f
000001b0: 8c0e 043b 9202 0d3f 29e0 f03c 13db 0dbf
000001c0: d1f6 383e be31 d6be cfed dd39 6eb4 8d3c
000001d0: 21e7 0dbe 7529 bf3e 16c5 acbd fea5 9bbf
000001e0: a273 de3c ec21 91bf c422 a5bd 92a0 53bf
000001f0: 4981 9fbd fd7c 1ebf 9d23 95be 807e 2abc
00000200: b9b7 fb3f edfe 113f 4fc8 a23f 90e5 2e3e
00000210: f15b 8a3f 4278 1cbe 3026 853f cca6 8cbe
00000220: 5eff a53d 6eea a53d 2271 cebc 0b3f e6bd
00000230: 11d0 e8bd 4702 b2be 1731 97be 5031 e1be
00000240: dff2 c3be 68e0 2dbc 535e d73c a5bb 35bd
00000250: e9cb b53e eb1d 583d a5ff 003f 21ac ff3d
00000260: b703 13bf f73b babd bcf8 1bbd 5fd9 12be
00000270: 18a0 aa3e 3be3 2f3e 8116 193f 02e2 df3e
00000280: 61ce 34bf ce81 c2be f591 53be 2c56 b5be
00000290: 6cdd 9c3d 2744 06be 8a0e ae3e 4f8b 013e
000002a0: 6894 3b3d be35 053e 177d 3e3e ecaf 9c3d
000002b0: 925f 1f3d cb89 aa3d c914 1b3e ac84 68bc
000002c0: d0c5 90be 3de1 863e e8de a7be de64 ca3d
000002d0: d265 a6be 3926 693d 4611 93bd 400a 943e
000002e0: 5971 efbd b735 283e 94d3 03bf d3ca b23d
000002f0: b77f 08be dfbc f93e 55b4 47be 29f3 1e3f
00000300: 8bed c8be f209 e13e bd82 1bbf 2018 5f3e
00000310: a2ca 6fbe 82c1 f93e 651a d0be 57de 633f
00000320: e07d ecbe 2126 4e3f dd9d 19bf bda3 cf3e
00000330: 3885 89be 6a36 733f 2705 09bf 9b67 a43f
00000340: 40ae eebe 05b2 aa3f 0466 acbd 0665 36be
00000350: c196 3b3e 1a87 2f3f d310 9abe 3cc3 923e
00000360: 8d0a c4be 8f5e a03e 4dd0 e6be 1537 8d3e
00000370: c274 523e 16c9 1c3d 4e57 273e a319 033e
00000380: 5ded 043e 935e 4a3e c05a 083e bae0 743e
00000390: 46a4 853e 631f a03c 7e5f 873d b01e c4bd
000003a0: 4cf7 433c 938c e6be 870e 103d 552a 99be
000003b0: a1eb 8d3e b0f7 d13c 1534 373e ece1 93be
000003c0: 74d8 583e ab31 45bf 524e bd3e 76de 72bf
000003d0: 5861 6e3e fbfb b7bc 9f65 1c3e a625 acbe
000003e0: 148a 533e ebca 56bf e5e3 793e 2cdb 81bf
000003f0: c8f0 823e 7864 8d3e 7137 28bf 7d52 fabe
0.14944997 -0.008374155 0.18576227 -0.17689376 0.40360567 0.013584377 -0.03762971 -0.05153808
-0.03861278 0.20321175 -0.42202294 -0.005586 -0.19688956 0.1602938 0.06849291 0.16681716
0.27636984 0.33165777 -0.611662 0.16760069 -0.16826259 0.26685166 -0.31129268 0.39166212
-0.40493923 0.61450607 -0.5159411 0.26966214 -0.24402487 0.44229287 -0.42429665 0.48953617
-0.7966177 0.71391994 -0.48839885 0.8111136 -0.288953 0.95856357 -0.43308094 1.2655218
-0.7101515 1.1530709 -0.18355638 -0.29215926 2.203585 0.7177734 1.5744479 0.1686199
1.4029055 0.031652596 1.4983413 0.03592607 0.24257413 -0.30486077 0.40772054 -0.22847606
0.67830676 -0.20941055 0.6347318 -0.5569655 0.026793495 -0.50987905 0.101903565 -0.030163571
0.09336707 0.5550147 0.24974248 0.59140676 -0.40753987 -0.61270714 -0.1696048 -0.3750648
0.15331632 0.06471945 0.5157367 0.31894583 -0.46641266 -0.8825973 -0.57724637 -0.57249814
-0.3282296 -0.45112693 0.16477384 -0.41233203 0.22774285 0.09953585 -0.78339344 0.10690824
-0.5561639 -0.25340387 -0.6094495 -0.3567694 -0.901892 -0.3623206 0.051603068 -0.06983036
0.20614769 -0.034986496 0.113301754 -0.052484307 0.089472614 -0.047898922 -0.06881995 -0.24157788
0.20184255 0.0010728673 0.039220046 0.57961124 0.0020150272 0.55082047 0.029403763 -0.55412406
0.18062903 -0.41834825 0.00042329586 0.01729795 -0.138577 0.37336317 -0.08436029 -1.2160032
0.027154747 -1.1338477 -0.08063272 -0.82666886 -0.07788331 -0.61909467 -0.29128733 -0.0104061365
1.9665443 0.5702961 1.2717379 0.17079759 1.0809308 -0.1528025 1.0402279 -0.27471006
0.08105348 0.081013545 -0.02520043 -0.11242493 -0.113678105 -0.34767362 -0.2952964 -0.43982935
-0.38271233 -0.010612585 0.026290094 -0.044368405 0.35507134 0.052762907 0.5039008 0.12484003
-0.57427543 -0.09093469 -0.03807901 -0.14340733 0.33325267 0.17176525 0.59799963 0.43727118
-0.7062741 -0.37989658 -0.20661147 -0.35417306 0.0765942 -0.13111936 0.33995467 0.12650798
0.045795828 0.13008782 0.18602405 0.07650742 0.038909502 0.08327063 0.15144648 -0.014191788
-0.2827592 0.26343718 -0.3278725 0.0988252 -0.32499558 0.056921218 -0.07181029 0.2891407
-0.11691541 0.1642674 -0.5149472 0.08730092 -0.1332997 0.4877691 -0.19502385 0.6208978
-0.3924373 0.439529 -0.60746366 0.21786547 -0.23417142 0.48780447 -0.40645137 0.8901114
-0.46189785 0.8052693 -0.60006505 0.4055461 -0.2685945 0.95004904 -0.53523487 1.2844118
-0.46617317 1.3335577 -0.084178954 -0.17811975 0.18319227 0.68565524 -0.3009096 0.28664577
-0.382893 0.31322142 -0.45080796 0.27581087 0.20552352 0.038277708 0.16341898 0.12802748
0.12981172 0.1976264 0.13315868 0.23913851 0.26101893 0.019546216 0.066100106 -0.09576166
0.011960816 -0.45029125 0.035170104 -0.2991511 0.27718833 0.025630802 0.17890961 -0.28883302
0.2117632 -0.7702891 0.36973816 -0.948707 0.23279321 -0.02245902 0.1527314 -0.33622473
0.20658141 -0.8390338 0.24403341 -1.0145011 0.25574327 0.27615714 -0.65709597 -0.4889106
